CRO-ULite-main/model/cro_model_quantized.tflite (tflite, 5352 bytes, 5 tensors)

arith.constant f4 [64, 2]
00000000: 5229 023c c179 2fbe 0f75 d63d 9eed 733e
00000010: 9970 333e 09de 3a3e 3edc 65bd 67cd bc3d
00000020: 95a9 a7bd bf72 6bbe 5684 9abe 435b 913e
00000030: fd4c 503e 569b 1ebb e3b9 15be c56c 803e
00000040: 1af7 8d3c 260b 49be f99e 773e f615 0cbe
00000050: 80c9 76be bc5c 953e eb11 f2bc cfd3 e53d
00000060: de1b 353e acf7 713c 886c 5e3e dbf5 22be
00000070: c08d 583d 2c8f 33be fe9b 3c3e ead2 1b3e
00000080: 86a2 243e 0b95 ca3d 937d 1ebd 64cb 36be
00000090: b992 4abe 3fd2 963e 2d55 413d 34b4 953e
000000a0: ad27 723e e6af 513d 701e 0cbe 6b26 7ebe
000000b0: 4946 2abd a821 8fbe a6a5 ce3d 49aa 8abe
000000c0: c775 ebbd 9cb3 9fbd 38dd 4f3e aa3a 4b3e
000000d0: 1b94 6abe 7c65 973b 2f9d 913d 1c7a 063e
000000e0: c252 11be ce15 803e 8d1c 7dbe 1245 883e
000000f0: c61a 5ebd 3b47 fdbd d6cd 2cbe 32e3 8f3e
00000100: b4b8 2cbd b9fd 863d 8950 e13d a170 90bd
00000110: e1ca 48bd f8b4 4c3d 796f 09be 3cd6 773e
00000120: bca3 d0bd 10ec 9cbe e6e7 e8bd 63d1 24bd
00000130: c16c a23d 7808 7abe e81d 0dbe 425f 00be
00000140: bcec a43c 1b9a 8cbe 4d65 a63d 23aa 583e
00000150: 74c5 343d cbc2 70ba a250 983d 6346 2ebd
00000160: 57fd 653e 5e22 19be f552 70bc a2d3 903d
00000170: bc16 65be 3ecb bf3b f74f 303e 62a5 66be
00000180: 3724 c3bd d4f5 813e 44a5 0cbe 5b87 c1bd
00000190: 8d6a 683d de2a 9f3d ac71 f03c 6047 ce3d
000001a0: 033e 7b3e 00a5 803e 1f85 c1bb 9951 e0bd
000001b0: f8c7 1dbe 6268 8cbd 13d7 d6bd 8c24 a8bd
000001c0: eb50 a83d 4cf6 64be 3371 2dbe dd23 87be
000001d0: 2905 5b3e 360b 01be 1aad 2dbe 33b5 043d
000001e0: 22f7 8a3e 32c0 8cbe 75ba 433e 0ff5 23be
000001f0: f16f 5a3d bbcb b33d bcc4 12be 7e36 573d
0.007944422 -0.17136289 0.10471546 0.23821113 0.17523421 0.18248762 -0.056118242 0.09218865
-0.08186642 -0.22992991 -0.3017909 0.2838994 0.20341869 -0.0024201474 -0.14621691 0.25082985
0.017329741 -0.19633159 0.24181737 -0.13680252 -0.24100304 0.29172313 -0.02954956 0.1122204
0.17686412 0.014768522 0.21721089 -0.15914099 0.05286956 -0.17535084 0.18418881 0.15217176
0.16077623 0.09891709 -0.038693976 -0.17851025 -0.19782533 0.2945728 0.04720037 0.29239047
0.23647948 0.05119314 -0.13683486 -0.24819343 -0.041570935 -0.27955365 0.10090189 -0.27083042
-0.114970736 -0.0779793 0.20299232 0.19846597 -0.2290806 0.004620252 0.071100585 0.13132519
-0.14191726 0.25016636 -0.24717923 0.26615196 -0.054224752 -0.12367102 -0.16875395 0.28103024
-0.042168334 0.065913625 0.11001689 -0.07052732 -0.049021605 0.049977273 -0.1342143 0.24202818
-0.1018748 -0.3064885 -0.11372356 -0.04023875 0.079308994 -0.24417293 -0.1378094 -0.12536338
0.020132415 -0.27461323 0.0812479 0.21158652 0.04413362 -0.00091843 0.074372545 -0.042547595
0.22459923 -0.14954516 -0.014668216 0.07071616 -0.22371954 0.005853086 0.17218004 -0.22524026
-0.09528392 0.25382864 -0.13734919 -0.09449645 0.05674224 0.07771848 0.029351078 0.100722075
0.24535374 0.25125885 -0.005905762 -0.109530635 -0.15408313 -0.06855847 -0.10490241 -0.08210096
0.08218559 -0.2235958 -0.16937713 -0.2639455 0.21388687 -0.12601933 -0.16960564 0.032399368
0.27141672 -0.27490383 0.19114096 -0.16011451 0.053329412 0.08779093 -0.1433286 0.052542202

arith.constant1 f4 [64]
00000000: ff90 023e b356 073e ff7a febd be31 94bd
00000010: f4f5 85bd 777e 0abd da48 153d 7af9 bb3d
00000020: 0d6d e03d 0805 26be e76d 18be adb3 c2bd
00000030: d0ab 51bd e59a e83d 2533 bdbd 11a8 c6bd
00000040: e117 ee3d 635b 16bd 870a 91ba 2a8c febd
00000050: fdd9 5f3d 2c78 673d 9388 8a3d 1fa4 943d
00000060: d14c 6e3b b012 73be 0b5f 1c3d 0900 15bd
00000070: 1c46 30bd d065 133d 2d95 833b cefd 683d
00000080: af9d d5bb 6030 23bd b2ab 1dbd b148 82bb
00000090: bae6 36bc 7267 1f3e 03e3 0fbe bbf0 dd3b
000000a0: 7742 49be 2acf 773c 1089 3dbe c083 043e
000000b0: 9770 703d b968 013e b506 f1bb 477d 14be
000000c0: b368 a03d dba7 8fbd c0f8 31be 8671 1ebe
000000d0: eedb 543e 894a 113e 2e8b 7f3d a45c 07be
000000e0: f285 183d 54c6 b4bd cb48 c43d cab0 5039
000000f0: 2b39 a7bd c76f 153e 5510 ee3d 8340 b53d
0.12750624 0.13216667 -0.124258034 -0.0723605 -0.065410525 -0.033812013 0.03644643 0.09178443
0.109583 -0.16212857 -0.14885674 -0.09506927 -0.051189244 0.11357669 -0.09238271 -0.09700025
0.11625648 -0.036708247 -0.001106576 -0.12429078 0.05465125 0.05651109 0.06764331 0.07257866
0.0036361704 -0.23737597 0.038176578 -0.036376987 -0.04303561 0.035985768 0.004015586 0.056882672
-0.0065190415 -0.039841056 -0.03849382 -0.0039759506 -0.011163408 0.15566805 -0.14051442 0.006773082
-0.1965426 0.015125075 -0.18509316 0.12940884 0.058701124 0.12637605 -0.007355536 -0.14500915
0.0783247 -0.07014438 -0.17380047 -0.15472993 0.20787022 0.14188589 0.06238859 -0.13218933
0.037237115 -0.088268906 0.09584197 0.00019902285 -0.08165201 0.14593421 0.11624209 0.08850195

arith.constant2 f4 [32]
00000000: 0efc 193e 57db d0bd faaa e53d 3b14 b7bd
00000010: 3b32 2f3e 2f0a 66be e7f1 2abe dd53 c13d
00000020: 1b59 3ebe 0d0d 01be 5246 b33d 9a71 883d
00000030: 0000 0000 d864 273e 927d d23d 89c9 d8bd
00000040: ac76 07be 0dc3 063e 795d 57bd 96d8 0b3c
00000050: 9bbd 94bd cd1e 17bd deeb 9a3d 5d26 273e
00000060: e80a 2bbd 97f8 85bd 03ed f43d d290 173d
00000070: 0000 0000 09d2 9f3d e466 edbd 7668 ec3d
0.15037557 -0.10198086 0.11214252 -0.089394055 0.17109005 -0.22464822 -0.16693841 0.09439824
-0.18588679 -0.12602635 0.08753647 0.06662293 0.0 0.16347063 0.10277857 -0.10585315
-0.13228863 0.13160343 -0.052579377 0.008535525 -0.07262727 -0.03689461 0.07564519 0.16323228
-0.041758448 -0.065415554 0.11959269 0.037003346 0.0 0.07803733 -0.115918905 0.11543362

arith.constant4 f4 [1, 32]
00000000: bd3b 903e 0040 16bd b3a6 073e bd0e 1fbe
00000010: 0cc0 623e 647b bfbe ddc7 89bd c5e4 043e
00000020: d2fc 3ebe 1970 1ebd 959d c23c 19ab 823e
00000030: 7195 8dbe 3ed4 4e3e d191 473c 47a5 5ebe
00000040: 77a3 76be 64cc 7c3d ab45 a8bd 43c7 b33e
00000050: 102f f8bd ce06 9ebe 8f45 fd3d 4301 603d
00000060: 89c4 03bd af31 44be 6ac2 463d e458 cb3c
00000070: 9e4d afbe 5536 3f3e 6d58 a1be ec52 b73e
0.28170577 -0.03668213 0.13247184 -0.15532966 0.22143573 -0.37398827 -0.06727574 0.12977894
-0.18651131 -0.038681123 0.023756782 0.25521162 -0.27653077 0.20198151 0.012180761 -0.21742736
-0.24085794 0.06171836 -0.08216413 0.35112962 -0.121183515 -0.30864567 0.12366783 0.054688703
-0.032169852 -0.19159578 0.04852525 0.02482266 -0.34238905 0.1867307 -0.31512776 0.35805452

tfl.pseudo_qconst i1 [32, 64]
00000000: 6eb2 572c 5f53 abf7 0191 8ce8 0d7c fd7c
00000010: 78cd cafe cc4e 6a3d 89ca e2b6 e6af 659e
00000020: a51f dccf ad26 631d c80e 947b 0d9d cb92
00000030: d03b 6d8e 0630 7ffa 6299 1333 2418 b65a
00000040: 2bc0 884c 4523 feb6 cd1b 1bbb 4d99 1e1e
00000050: 1ff7 c966 2729 4581 4bd6 7d90 f0f2 6df5
00000060: 00e2 066b 4fb1 0c73 93cf 0aa9 670f 1896
00000070: f100 18a6 32ea 90d7 5245 f31d f8e3 b5fd
00000080: 6e81 b0c8 b99b cda7 60fa bfa8 f5c9 ff63
00000090: 8a49 4de0 6f78 2be1 5f93 704d f7b9 3cc6
000000a0: 58b5 622c b2c2 249f e871 51ff 847e bdd1
000000b0: c9f4 81dc 9ffb c665 aa15 71b9 613b f337
000000c0: 9fbe 9b40 b864 ddd8 06c5 fc47 6168 fdab
000000d0: ef0e 3b54 ba79 5705 a2e7 7011 92f8 23f2
000000e0: 1e49 35d6 085c 446f 0221 069a 4600 9b99
000000f0: 6750 8bab dc48 6549 6128 ae9b f829 81b4
110 -78 87 44 95 83 -85 -9
1 -111 -116 -24 13 124 -3 124
120 -51 -54 -2 -52 78 106 61
-119 -54 -30 -74 -26 -81 101 -98
-91 31 -36 -49 -83 38 99 29
-56 14 -108 123 13 -99 -53 -110
-48 59 109 -114 6 48 127 -6
98 -103 19 51 36 24 -74 90
43 -64 -120 76 69 35 -2 -74
-51 27 27 -69 77 -103 30 30
31 -9 -55 102 39 41 69 -127
75 -42 125 -112 -16 -14 109 -11
0 -30 6 107 79 -79 12 115
-109 -49 10 -87 103 15 24 -106
-15 0 24 -90 50 -22 -112 -41
82 69 -13 29 -8 -29 -75 -3
110 -127 -80 -56 -71 -101 -51 -89
96 -6 -65 -88 -11 -55 -1 99
-118 73 77 -32 111 120 43 -31
95 -109 112 77 -9 -71 60 -58
88 -75 98 44 -78 -62 36 -97
-24 113 81 -1 -124 126 -67 -47
-55 -12 -127 -36 -97 -5 -58 101
-86 21 113 -71 97 59 -13 55
-97 -66 -101 64 -72 100 -35 -40
6 -59 -4 71 97 104 -3 -85
-17 14 59 84 -70 121 87 5
-94 -25 112 17 -110 -8 35 -14
30 73 53 -42 8 92 68 111
2 33 6 -102 70 0 -101 -103
103 80 -117 -85 -36 72 101 73
97 40 -82 -101 -8 41 -127 -76
