CRO-ULite-main/model/mnist_model_quantized.tflite (tflite, 5352 bytes, 5 tensors)

arith.constant f4 [64, 2]
0	0xbe98cf86	-0.29845828
1	0xbe66a8ab	-0.22525279
2	0xbcc0ed6c	-0.023550712
3	0xbdf00895	-0.11720387
4	0x3e46064e	0.19338343
5	0x3dfbb7dd	0.122909285
6	0x3c47cdb8	0.012195043
7	0x3c8e73cc	0.0173892
8	0xba808010	-0.0009803791
9	0x3de7d34d	0.11319599
10	0x3e1d3494	0.15352088
11	0x3de511d3	0.1118504
12	0xbd23f378	-0.04002711
13	0x3d56d006	0.05244448
14	0x3e93ded3	0.2888094
15	0xbe8a9c27	-0.2707226
16	0xbe4e3664	-0.20137936
17	0x3e946ba3	0.2898837
18	0x3e53ba79	0.20676602
19	0xbe83c3e0	-0.25735378
20	0xbe43a307	-0.19105159
21	0xbe8a5209	-0.27015713
22	0xbe1b695a	-0.15176907
23	0xbdf6c097	-0.12048452
24	0x3d8af4b1	0.067849524
25	0x3e05b8ee	0.13058826
26	0x3d3a34f3	0.045460653
27	0x3e806592	0.25077492
28	0xbe2a5647	-0.16634475
29	0xbda9e93f	-0.08296441
30	0xbe3e6930	-0.18594813
31	0xbe5cbe60	-0.21556997
32	0x3dd4a7d9	0.10383577
33	0xbc8a75fb	-0.01690196
34	0x3e349d34	0.17638093
35	0x3ca241ba	0.019806731
36	0x3e53445f	0.2063155
37	0x3c6c1b8d	0.0144108655
38	0xbe1f8dcd	-0.15581436
39	0x3e9a88dd	0.30182543
40	0xbd5eda13	-0.05440719
41	0xbe8f556b	-0.27994856
42	0x3caa72ee	0.020806756
43	0x3e974bb6	0.2954995
44	0x3d55e0df	0.052216407
45	0x3ddc3b04	0.10753444
46	0x3d9da30a	0.07697113
47	0x3dcd037e	0.10010432
48	0xbe6b4a63	-0.22977595
49	0xbc351912	-0.0110533405
50	0x3d81b972	0.06334199
51	0xbe90d0ee	-0.282844
52	0x3e16b39b	0.14716952
53	0xbd8d92e8	-0.06912786
54	0x3e6b6a8e	0.22989866
55	0x3e00bf8c	0.1257307
56	0x3c18de01	0.009330274
57	0xbdf7e301	-0.121038444
58	0xbcf8173c	-0.030284517
59	0xbd8afae9	-0.067861386
60	0x3d4c44bb	0.049870234
61	0xbd631d3a	-0.055447794
62	0xbdea9cb7	-0.11455672
63	0x3e172810	0.14761376
64	0x3e9012bb	0.2813929
65	0x3e5f8b1f	0.21830414
66	0x3e896be3	0.26840124
67	0xbdc8745f	-0.09787821
68	0x3e93f042	0.2889424
69	0xbc6618dc	-0.014044013
70	0xbd723460	-0.05913198
71	0x3d942a61	0.07234646
72	0x3dc82f08	0.097745955
73	0x3d8a000c	0.0673829
74	0xbd410666	-0.047125243
75	0x3c55cbab	0.0130490465
76	0xbe0c7cdb	-0.13719504
77	0xbe91fca7	-0.2851307
78	0x3e0fdebc	0.1404981
79	0x3d93d9ad	0.07219253
80	0xbe88ab1e	-0.26693052
81	0xbe410dc8	-0.18852913
82	0xbe0bb1ae	-0.13641998
83	0x3da30883	0.07960608
84	0x3e326199	0.17420043
85	0x3dbb0bd5	0.09133116
86	0x3e2bb812	0.16769436
87	0x3dca7331	0.09885252
88	0xbe8f1a8b	-0.27949938
89	0xbd368813	-0.044563364
90	0xbe219358	-0.15778863
91	0x3e9730c1	0.29529384
92	0x3caaca33	0.02084837
93	0x3dc5cc12	0.09658064
94	0xbda03b30	-0.07823789
95	0xbcf15821	-0.029460968
96	0xbe17defc	-0.14831156
97	0xbd866dde	-0.06563924
98	0xbd6d0d3f	-0.05787396
99	0x3e84c156	0.25928754
100	0x3df08220	0.117435694
101	0x3e83d2b0	0.2574668
102	0x3d17143e	0.03688454
103	0xbd0ad575	-0.033894975
104	0xbd5dcf66	-0.05415287
105	0xbe07f172	-0.13275698
106	0xbe0cd2bd	-0.13752265
107	0xbe1ccb82	-0.15312007
108	0x3e8d29c5	0.2757093
109	0x3e332ffc	0.17498773
110	0xbe286dbd	-0.16448112
111	0xbe6b0c4b	-0.22953908
112	0x3d9083b9	0.07056374
113	0xbd22308b	-0.039597075
114	0xbda88b2b	-0.08229669
115	0xbe874412	-0.2641912
116	0x3e69bab9	0.22825135
117	0x3dcf809f	0.101319544
118	0x3e47aac6	0.19498739
119	0x3e8de994	0.27717268
120	0xbe8d3a02	-0.2758332
121	0xbd8097ac	-0.06278929
122	0x3e0a8b74	0.1352976
123	0xbe84c289	-0.2592967
124	0xbe8bea56	-0.27327222
125	0xbdb4448a	-0.08802135
126	0x3ce4e4ab	0.027941069
127	0xbdba52e1	-0.09097839

arith.constant1 f4 [64]
0	0xbdca0f7e	-0.09866236
1	0x3c939e74	0.018019892
2	0xbda15edf	-0.07879423
3	0xbd7831f9	-0.060594533
4	0x3d83fb49	0.06444413
5	0x3d4b0efe	0.049574845
6	0x3caff3b4	0.021478511
7	0x3dadd0eb	0.084871136
8	0xbdc83bde	-0.09777044
9	0xbd50f418	-0.051014036
10	0x3d294c7a	0.0413327
11	0x3c3b15b4	0.011418749
12	0xbd6f00cf	-0.05835038
13	0xbdabc76d	-0.08387647
14	0xbd9462d0	-0.072454095
15	0xbda63b3f	-0.08116769
16	0x3d64d7e9	0.05586997
17	0xbd84ade7	-0.06478482
18	0x3d4c25fc	0.049840912
19	0xbb44f085	-0.0030050587
20	0xbd6147ed	-0.055000234
21	0xbb675e44	-0.003530399
22	0x3c7ecc93	0.015551704
23	0xbd41c275	-0.04730459
24	0x3d218ef6	0.03944298
25	0xbd55ccd0	-0.052197278
26	0xbbfbc224	-0.0076830555
27	0xbdb3adf0	-0.0877341
28	0xbceaab1c	-0.028646044
29	0xbd6a70bb	-0.057236414
30	0x3d75d5dc	0.060018405
31	0x3dc0ed81	0.094203
32	0xbe0a9821	-0.13534595
33	0x3dd88f89	0.10574252
34	0xbdc4ec01	-0.09615327
35	0x3da711bb	0.08157679
36	0x3c826e9f	0.015921889
37	0xbdc49056	-0.095978424
38	0x3d24a5be	0.040197127
39	0xbdf5f457	-0.12009495
40	0x3d31a8ad	0.043373752
41	0x3dad6d03	0.08468058
42	0xbd97bc98	-0.07409018
43	0x3dfeb7c6	0.12437396
44	0xbd2f0af2	-0.042735048
45	0x3d870030	0.06591833
46	0xbdab1c8f	-0.083550565
47	0xbdab8e20	-0.083767176
48	0x3d3b51cc	0.045732304
49	0x3d54d5f8	0.05196187
50	0xbd86c471	-0.06580437
51	0x3d72ae53	0.05924828
52	0xbcc89182	-0.024483446
53	0x3bd2d391	0.006433912
54	0x3d8cdcfb	0.06878086
55	0xbe120873	-0.14261036
56	0xbd8ad553	-0.067789696
57	0x3c78c9a0	0.01518479
58	0x3dbef8d4	0.09324804
59	0x3c7388b2	0.014864134
60	0xbda0ac6c	-0.07845387
61	0x3cc8ecf0	0.024527043
62	0xbd4da674	-0.05020757
63	0xbd521abd	-0.05129503

arith.constant2 f4 [32]
0	0xbc59a586	-0.013284093
1	0x3e0151e4	0.12628895
2	0x3d89b0d4	0.067231804
3	0x3db505c1	0.08838988
4	0x3df6d805	0.12052921
5	0x3e005a45	0.12534435
6	0x3d7d9cb7	0.061917033
7	0xbd89eb76	-0.06734364
8	0xbdfdb0d5	-0.12387244
9	0x00000000	0.0
10	0x3d1beb5e	0.03806626
11	0xbc5dd3aa	-0.013539234
12	0x3d39d970	0.04537338
13	0xbdf53166	-0.11972313
14	0xbdce99dc	-0.1008794
15	0xbdf600d0	-0.12011874
16	0x3e04c1d7	0.12964569
17	0x3d5c6a1d	0.053812135
18	0x3d40562d	0.046957184
19	0x3d9a705f	0.07540964
20	0xbd9f9dff	-0.07793807
21	0xbda27ee6	-0.0793436
22	0xbe13ff2b	-0.14452808
23	0xbdb940bd	-0.09045551
24	0x3e07c388	0.13258183
25	0xbe08f12a	-0.13373247
26	0x3dd58368	0.104254544
27	0xbdaecb34	-0.08534852
28	0xbdd0e499	-0.101998515
29	0x3d7a0d4a	0.06104783
30	0x3df61d87	0.12017351
31	0x3dee68e1	0.11641098

arith.constant4 f4 [1, 32]
0	0x3e67e36d	0.2264535
1	0x3da5e3e4	0.08100107
2	0x3e555a08	0.20835125
3	0x3e507701	0.20357896
4	0x3e8b188b	0.27167162
5	0x3d3fcdde	0.04682719
6	0x3eb52dda	0.35386544
7	0xbe3bd982	-0.18344691
8	0xbecbe024	-0.39819443
9	0x3da09168	0.07840234
10	0x3eb71a8d	0.35762444
11	0x39901e6e	0.00027488492
12	0x3ea51fb7	0.3225076
13	0xbe93174b	-0.2872871
14	0xbc3afe5b	-0.011413182
15	0xbc85f332	-0.016351316
16	0x3e391861	0.18075706
17	0x3e129e37	0.14318167
18	0x3d9730ee	0.073823795
19	0x3e0604d9	0.13087787
20	0xbe5d9f3b	-0.21642773
21	0xbeb763f2	-0.3581844
22	0xbcaed5b8	-0.021342143
23	0xbe3c6059	-0.18396129
24	0x3e08768d	0.13326474
25	0xbed14976	-0.4087636
26	0x3df6f4e1	0.12058426
27	0xbeb265f4	-0.3484341
28	0xbebe6891	-0.37189153
29	0x3eca74be	0.39542192
30	0x3e37514e	0.17902109
31	0x3eb9eb4e	0.36312336

tfl.pseudo_qconst i1 [32, 64]
0	0x69	105
1	0x68	104
2	0xc2	-62
3	0xc7	-57
4	0xa0	-96
5	0xb4	-76
6	0x4f	79
7	0x31	49
8	0xb7	-73
9	0xcd	-51
10	0x11	17
11	0x84	-124
12	0x16	22
13	0x66	102
14	0xb2	-78
15	0x43	67
16	0x07	7
17	0x1e	30
18	0xf0	-16
19	0x9b	-101
20	0x37	55
21	0x0e	14
22	0xc1	-63
23	0x25	37
24	0x55	85
25	0x85	-123
26	0xe8	-24
27	0xd7	-41
28	0x13	19
29	0xa7	-89
30	0x33	51
31	0x9a	-102
32	0xd9	-39
33	0xc3	-61
34	0xc1	-63
35	0x65	101
36	0x01	1
37	0xbd	-67
38	0x12	18
39	0xd7	-41
40	0xb2	-78
41	0xf9	-7
42	0x5d	93
43	0x9d	-99
44	0xbe	-66
45	0x11	17
46	0xbd	-67
47	0x2b	43
48	0xd9	-39
49	0xec	-20
50	0xe8	-24
51	0xe1	-31
52	0xaa	-86
53	0x83	-125
54	0xdf	-33
55	0x57	87
56	0x1e	30
57	0x3e	62
58	0x0b	11
59	0xc5	-59
60	0x72	114
61	0xf5	-11
62	0x81	-127
63	0xf9	-7
64	0xfb	-5
65	0xd7	-41
66	0x0f	15
67	0x5f	95
68	0x37	55
69	0xdc	-36
70	0x99	-103
71	0x0e	14
72	0x52	82
73	0x13	19
74	0x1d	29
75	0xff	-1
76	0x86	-122
77	0x77	119
78	0x9f	-97
79	0xcf	-49
80	0x30	48
81	0x7d	125
82	0x2c	44
83	0x6f	111
84	0x28	40
85	0xec	-20
86	0x72	114
87	0x21	33
88	0xfe	-2
89	0xcf	-49
90	0x16	22
91	0x1c	28
92	0x0c	12
93	0xf5	-11
94	0xaf	-81
95	0xbc	-68
96	0xcb	-53
97	0x5e	94
98	0x96	-106
99	0x45	69
100	0xf7	-9
101	0x27	39
102	0x81	-127
103	0xf0	-16
104	0xed	-19
105	0xc1	-63
106	0x0d	13
107	0x5e	94
108	0xbb	-69
109	0x0f	15
110	0xfe	-2
111	0x09	9
112	0xdb	-37
113	0x17	23
114	0x1d	29
115	0xff	-1
116	0x54	84
117	0x3a	58
118	0xaf	-81
119	0xf4	-12
120	0xdb	-37
121	0x6b	107
122	0x04	4
123	0xf0	-16
124	0x1b	27
125	0x13	19
126	0xef	-17
127	0x9b	-101
128	0x06	6
129	0x97	-105
130	0x86	-122
131	0xec	-20
132	0x4e	78
133	0x71	113
134	0xa2	-94
135	0x2e	46
136	0x77	119
137	0xbc	-68
138	0xd8	-40
139	0x0d	13
140	0x1f	31
141	0x0a	10
142	0x48	72
143	0x2d	45
144	0xaa	-86
145	0x11	17
146	0xb2	-78
147	0x18	24
148	0x9e	-98
149	0xbc	-68
150	0x92	-110
151	0xc7	-57
152	0x0f	15
153	0x51	81
154	0x59	89
155	0xfa	-6
156	0xb2	-78
157	0xf9	-7
158	0xb8	-72
159	0xd5	-43
160	0x9d	-99
161	0x99	-103
162	0xd0	-48
163	0x31	49
164	0xd8	-40
165	0xf6	-10
166	0x24	36
167	0x90	-112
168	0x61	97
169	0x41	65
170	0xcd	-51
171	0xba	-70
172	0x8a	-118
173	0xdb	-37
174	0x7f	127
175	0xfb	-5
176	0x33	51
177	0xc6	-58
178	0x67	103
179	0x30	48
180	0x62	98
181	0x48	72
182	0x62	98
183	0x58	88
184	0xbe	-66
185	0x31	49
186	0xea	-22
187	0xe5	-27
188	0xae	-82
189	0x56	86
190	0x49	73
191	0x21	33
192	0x2b	43
193	0x35	53
194	0x88	-120
195	0xb2	-78
196	0xee	-18
197	0x7f	127
198	0x25	37
199	0xb4	-76
200	0x4f	79
201	0xf0	-16
202	0x70	112
203	0x9d	-99
204	0xd8	-40
205	0x78	120
206	0x8b	-117
207	0xfd	-3
208	0x67	103
209	0xde	-34
210	0x03	3
211	0x42	66
212	0x1c	28
213	0x9a	-102
214	0x60	96
215	0x43	67
216	0x04	4
217	0x88	-120
218	0xbe	-66
219	0x95	-107
220	0x6d	109
221	0xee	-18
222	0x31	49
223	0x62	98
224	0x43	67
225	0xdc	-36
226	0xa7	-89
227	0x54	84
228	0x32	50
229	0x0f	15
230	0xe5	-27
231	0xf0	-16
232	0x15	21
233	0x41	65
234	0xc0	-64
235	0x60	96
236	0x70	112
237	0x21	33
238	0xe5	-27
239	0x10	16
240	0xda	-38
241	0x40	64
242	0x9d	-99
243	0x6a	106
244	0x42	66
245	0x9e	-98
246	0x66	102
247	0xe9	-23
248	0x9b	-101
249	0x93	-109
250	0xa1	-95
251	0xc6	-58
252	0x55	85
253	0x9b	-101
254	0x9c	-100
255	0x04	4
